…
      },
      "source": [
        "m  = BRDNet()"
      ],
      "execution_count": 71,
      "outputs": [
        {
          "output_type": "stream",
          "text": [
            "Model: \"model_1\"\n",
            "__________________________________________________________________________________________________\n",
            "Layer (type)                    Output Shape         Param #     Connected to                     \n",
            "==================================================================================================\n",
            "input_2 (InputLayer)            [(None, 128, 128, 1) 0                                            \n",
            "__________________________________________________________________________________________________\n",
            "conv2d_35 (Conv2D)              (None, 128, 128, 64) 640         input_2[0][0]                    \n",
            "__________________________________________________________________________________________________\n",
            "conv2d_52 (Conv2D)              (None, 128, 128, 64) 640         input_2[0][0]                    \n",
            "__________________________________________________________________________________________________\n",
            "activation_32 (Activation)      (None, 128, 128, 64) 0           conv2d_35[0][0]                  \n",
            "__________________________________________________________________________________________________\n",
            "activation_48 (Activation)      (None, 128, 128, 64) 0           conv2d_52[0][0]                  \n",
            "__________________________________________________________________________________________________\n",
            "conv2d_36 (Conv2D)              (None, 128, 128, 64) 36928       activation_32[0][0]              \n",
            "__________________________________________________________________________________________________\n",
            "conv2d_53 (Conv2D)              (None, 128, 128, 64) 36928       activation_48[0][0]              \n",
            "__________________________________________________________________________________________________\n",
            "activation_33 (Activation)      (None, 128, 128, 64) 0           conv2d_36[0][0]                  \n",
            "__________________________________________________________________________________________________\n",
            "activation_49 (Activation)      (None, 128, 128, 64) 0           conv2d_53[0][0]                  \n",
            "__________________________________________________________________________________________________\n",
            "conv2d_37 (Conv2D)              (None, 128, 128, 64) 36928       activation_33[0][0]              \n",
            "__________________________________________________________________________________________________\n",
            "conv2d_54 (Conv2D)              (None, 128, 128, 64) 36928       activation_49[0][0]              \n",
            "__________________________________________________________________________________________________\n",
            "activation_34 (Activation)      (None, 128, 128, 64) 0           conv2d_37[0][0]                  \n",
            "__________________________________________________________________________________________________\n",
            "activation_50 (Activation)      (None, 128, 128, 64) 0           conv2d_54[0][0]                  \n",
            "__________________________________________________________________________________________________\n",
            "conv2d_38 (Conv2D)              (None, 128, 128, 64) 36928       activation_34[0][0]              \n",
            "__________________________________________________________________________________________________\n",
            "conv2d_55 (Conv2D)              (None, 128, 128, 64) 36928       activation_50[0][0]              \n",
            "__________________________________________________________________________________________________\n",
            "activation_35 (Activation)      (None, 128, 128, 64) 0           conv2d_38[0][0]                  \n",
            "__________________________________________________________________________________________________\n",
            "activation_51 (Activation)      (None, 128, 128, 64) 0           conv2d_55[0][0]                  \n",
            "__________________________________________________________________________________________________\n",
            "conv2d_39 (Conv2D)              (None, 128, 128, 64) 36928       activation_35[0][0]              \n",
            "__________________________________________________________________________________________________\n",
            "conv2d_56 (Conv2D)              (None, 128, 128, 64) 36928       activation_51[0][0]              \n",
            "__________________________________________________________________________________________________\n",
            "activation_36 (Activation)      (None, 128, 128, 64) 0           conv2d_39[0][0]                  \n",
            "__________________________________________________________________________________________________\n",
            "activation_52 (Activation)      (None, 128, 128, 64) 0           conv2d_56[0][0]                  \n",
            "__________________________________________________________________________________________________\n",
            "conv2d_40 (Conv2D)              (None, 128, 128, 64) 36928       activation_36[0][0]              \n",
            "__________________________________________________________________________________________________\n",
            "conv2d_57 (Conv2D)              (None, 128, 128, 64) 36928       activation_52[0][0]              \n",
            "__________________________________________________________________________________________________\n",
            "activation_37 (Activation)      (None, 128, 128, 64) 0           conv2d_40[0][0]                  \n",
            "__________________________________________________________________________________________________\n",
            "activation_53 (Activation)      (None, 128, 128, 64) 0           conv2d_57[0][0]                  \n",
            "__________________________________________________________________________________________________\n",
            "conv2d_41 (Conv2D)              (None, 128, 128, 64) 36928       activation_37[0][0]              \n",
            "__________________________________________________________________________________________________\n",
            "conv2d_58 (Conv2D)              (None, 128, 128, 64) 36928       activation_53[0][0]              \n",
            "__________________________________________________________________________________________________\n",
            "activation_38 (Activation)      (None, 128, 128, 64) 0           conv2d_41[0][0]                  \n",
            "__________________________________________________________________________________________________\n",
            "activation_54 (Activation)      (None, 128, 128, 64) 0           conv2d_58[0][0]                  \n",
            "__________________________________________________________________________________________________\n",
            "conv2d_42 (Conv2D)              (None, 128, 128, 64) 36928       activation_38[0][0]              \n",
            "__________________________________________________________________________________________________\n",
            "conv2d_59 (Conv2D)              (None, 128, 128, 64) 36928       activation_54[0][0]              \n",
            "__________________________________________________________________________________________________\n",
            "activation_39 (Activation)      (None, 128, 128, 64) 0           conv2d_42[0][0]                  \n",
            "__________________________________________________________________________________________________\n",
            "activation_55 (Activation)      (None, 128, 128, 64) 0           conv2d_59[0][0]                  \n",
            "__________________________________________________________________________________________________\n",
            "conv2d_43 (Conv2D)              (None, 128, 128, 64) 36928       activation_39[0][0]              \n",
            "__________________________________________________________________________________________________\n",
            "conv2d_60 (Conv2D)              (None, 128, 128, 64) 36928       activation_55[0][0]              \n",
            "__________________________________________________________________________________________________\n",
            "activation_40 (Activation)      (None, 128, 128, 64) 0           conv2d_43[0][0]                  \n",
            "__________________________________________________________________________________________________\n",
            "activation_56 (Activation)      (None, 128, 128, 64) 0           conv2d_60[0][0]                  \n",
            "__________________________________________________________________________________________________\n",
            "conv2d_44 (Conv2D)              (None, 128, 128, 64) 36928       activation_40[0][0]              \n",
            "__________________________________________________________________________________________________\n",
            "conv2d_61 (Conv2D)              (None, 128, 128, 64) 36928       activation_56[0][0]              \n",
            "__________________________________________________________________________________________________\n",
            "activation_41 (Activation)      (None, 128, 128, 64) 0           conv2d_44[0][0]                  \n",
            "__________________________________________________________________________________________________\n",
            "activation_57 (Activation)      (None, 128, 128, 64) 0           conv2d_61[0][0]                  \n",
            "__________________________________________________________________________________________________\n",
            "conv2d_45 (Conv2D)              (None, 128, 128, 64) 36928       activation_41[0][0]              \n",
            "__________________________________________________________________________________________________\n",
            "conv2d_62 (Conv2D)              (None, 128, 128, 64) 36928       activation_57[0][0]              \n",
            "__________________________________________________________________________________________________\n",
            "activation_42 (Activation)      (None, 128, 128, 64) 0           conv2d_45[0][0]                  \n",
            "__________________________________________________________________________________________________\n",
            "activation_58 (Activation)      (None, 128, 128, 64) 0           conv2d_62[0][0]                  \n",
            "__________________________________________________________________________________________________\n",
            "conv2d_46 (Conv2D)              (None, 128, 128, 64) 36928       activation_42[0][0]              \n",
            "__________________________________________________________________________________________________\n",
            "conv2d_63 (Conv2D)              (None, 128, 128, 64) 36928       activation_58[0][0]              \n",
            "__________________________________________________________________________________________________\n",
            "activation_43 (Activation)      (None, 128, 128, 64) 0           conv2d_46[0][0]                  \n",
            "__________________________________________________________________________________________________\n",
            "activation_59 (Activation)      (None, 128, 128, 64) 0           conv2d_63[0][0]                  \n",
            "__________________________________________________________________________________________________\n",
            "conv2d_47 (Conv2D)              (None, 128, 128, 64) 36928       activation_43[0][0]              \n",
            "__________________________________________________________________________________________________\n",
            "conv2d_64 (Conv2D)              (None, 128, 128, 64) 36928       activation_59[0][0]              \n",
            "__________________________________________________________________________________________________\n",
            "activation_44 (Activation)      (None, 128, 128, 64) 0           conv2d_47[0][0]                  \n",
            "__________________________________________________________________________________________________\n",
            "activation_60 (Activation)      (None, 128, 128, 64) 0           conv2d_64[0][0]                  \n",
            "__________________________________________________________________________________________________\n",
            "conv2d_48 (Conv2D)              (None, 128, 128, 64) 36928       activation_44[0][0]              \n",
            "__________________________________________________________________________________________________\n",
            "conv2d_65 (Conv2D)              (None, 128, 128, 64) 36928       activation_60[0][0]              \n",
            "__________________________________________________________________________________________________\n",
            "activation_45 (Activation)      (None, 128, 128, 64) 0           conv2d_48[0][0]                  \n",
            "__________________________________________________________________________________________________\n",
            "activation_61 (Activation)      (None, 128, 128, 64) 0           conv2d_65[0][0]                  \n",
            "__________________________________________________________________________________________________\n",
            "conv2d_49 (Conv2D)              (None, 128, 128, 64) 36928       activation_45[0][0]              \n",
            "__________________________________________________________________________________________________\n",
            "conv2d_66 (Conv2D)              (None, 128, 128, 64) 36928       activation_61[0][0]              \n",
            "__________________________________________________________________________________________________\n",
            "activation_46 (Activation)      (None, 128, 128, 64) 0           conv2d_49[0][0]                  \n",
            "__________________________________________________________________________________________________\n",
            "activation_62 (Activation)      (None, 128, 128, 64) 0           conv2d_66[0][0]                  \n",
            "__________________________________________________________________________________________________\n",
            "conv2d_50 (Conv2D)              (None, 128, 128, 64) 36928       activation_46[0][0]              \n",
            "__________________________________________________________________________________________________\n",
            "conv2d_67 (Conv2D)              (None, 128, 128, 64) 36928       activation_62[0][0]              \n",
            "__________________________________________________________________________________________________\n",
            "activation_47 (Activation)      (None, 128, 128, 64) 0           conv2d_50[0][0]                  \n",
            "__________________________________________________________________________________________________\n",
            "activation_63 (Activation)      (None, 128, 128, 64) 0           conv2d_67[0][0]                  \n",
            "__________________________________________________________________________________________________\n",
            "conv2d_51 (Conv2D)              (None, 128, 128, 1)  577         activation_47[0][0]              \n",
            "__________________________________________________________________________________________________\n",
            "conv2d_68 (Conv2D)              (None, 128, 128, 1)  577         activation_63[0][0]              \n",
            "__________________________________________________________________________________________________\n",
            "subtract_3 (Subtract)           (None, 128, 128, 1)  0           input_2[0][0]                    \n",
            "                                                                 conv2d_51[0][0]                  \n",
            "__________________________________________________________________________________________________\n",
            "subtract_4 (Subtract)           (None, 128, 128, 1)  0           input_2[0][0]                    \n",
            "                                                                 conv2d_68[0][0]                  \n",
            "__________________________________________________________________________________________________\n",
            "concatenate_1 (Concatenate)     (None, 128, 128, 2)  0           subtract_3[0][0]                 \n",
            "                                                                 subtract_4[0][0]                 \n",
            "__________________________________________________________________________________________________\n",
            "conv2d_69 (Conv2D)              (None, 128, 128, 1)  19          concatenate_1[0][0]              \n",
            "__________________________________________________________________________________________________\n",
            "subtract_5 (Subtract)           (None, 128, 128, 1)  0           input_2[0][0]                    \n",
            "                                                                 conv2d_69[0][0]                  \n",
            "==================================================================================================\n",
            "Total params: 1,110,293\n",
            "Trainable params: 1,110,293\n",
            "Non-trainable params: 0\n",
…
